Fitness_tracker.tflite (tflite, 3460 bytes, 6 tensors)

arith.constant f4 [3, 12]
0	0x3f4e8d29	0.80684143
1	0xbcbad078	-0.022804484
2	0xbf961a5e	-1.1726797
3	0x3ec9a8a4	0.39386475
4	0x3f5ae01a	0.854982
5	0x3c0bc41d	0.008530644
6	0xbf39bf37	-0.72557396
7	0xbf8f597b	-1.1199182
8	0xbef5f130	-0.48035574
9	0x3f322a2a	0.6959559
10	0x3e24e034	0.16101152
11	0xbf0bcb82	-0.54607403
12	0xbf640a0d	-0.89077836
13	0xbf617282	-0.8806535
14	0x3f609277	0.8772349
15	0x3d48fbcb	0.049068253
16	0x3f511487	0.8167195
17	0x3f2b90eb	0.67018
18	0x3d8a9ae7	0.067678265
19	0x3f032275	0.5122445
20	0x3ec2f9b9	0.38081148
21	0xbf090f81	-0.5353928
22	0xbf8cb088	-1.0991373
23	0x3dafc34f	0.08582174
24	0xbf02b0b2	-0.51050866
25	0x3eeb4619	0.45951918
26	0xbede0ca3	-0.43369016
27	0xbf610963	-0.8790495
28	0xbf38fad6	-0.72257745
29	0xbf2bd1ab	-0.671168
30	0x3f8c88e8	1.097928
31	0x3f21239b	0.62944955
32	0xbc87b8ca	-0.016567606
33	0xbece9a0c	-0.40351903
34	0x3ef1bd87	0.4721491
35	0x3f1d9e62	0.615698

arith.constant1 f4 [12, 16]
0	0x3e7dd3c2	0.2478781
1	0xbce1a17f	-0.027542828
2	0xbeb4f626	-0.35344046
3	0x3c497633	0.012296247
4	0xbe8107a3	-0.2520114
5	0xbe853287	-0.26015112
6	0xbeb8249f	-0.3596544
7	0x3dc7fea8	0.09765369
8	0x3f049943	0.5179636
9	0xbedfe537	-0.43729565
10	0x3ec45a5b	0.38350186
11	0x3e3ea674	0.18618184
12	0x3f080e94	0.53147244
13	0xbf2f1a8a	-0.6839987
14	0xbda27bbb	-0.07933756
15	0xbe39c6fa	-0.1814231
16	0x3ef61571	0.48063233
17	0xbd7b6592	-0.061376162
18	0x3f2a4f4f	0.66527265
19	0x3f15da02	0.5853578
20	0xbf4d921e	-0.8030108
21	0x3e4d88cf	0.2007172
22	0x3f05d891	0.5228358
23	0xbd84b39c	-0.0647957
24	0x3f27f212	0.65603745
25	0x3d04a839	0.032386992
26	0xbe44d7a3	-0.19222884
27	0x3e37dbf4	0.17954999
28	0xbdc39cd2	-0.095513955
29	0x3eceb59a	0.40372926
30	0x3e3f1a74	0.18662435
31	0xbe481a43	-0.19541268
32	0xbb1fb2c5	-0.002436803
33	0x3e9d3c81	0.30710223
34	0xbf890a05	-1.0706183
35	0xbd137f82	-0.036010273
36	0x3da337e0	0.07969642
37	0x3f3c7375	0.73613673
38	0x3ec0f0b4	0.37683642
39	0xbed7a447	-0.4211752
40	0xbf3175af	-0.69320196
41	0x3f237ebd	0.6386526
42	0xbcde6654	-0.027148403
43	0x3e9c741d	0.30557337
44	0xbc3976ef	-0.01131986
45	0x3c90946a	0.017648894
46	0x3f0d3d2f	0.55171484
47	0x3eea39ec	0.45747316
48	0x3f0ca9cb	0.54946584
49	0x3dee105a	0.116242126
50	0x3ee2967a	0.4425543
51	0xbe491246	-0.19635877
52	0x3df76357	0.120794944
53	0xbed63768	-0.41839147
54	0x3ef8a2da	0.48561746
55	0xbc3d0417	-0.01153662
56	0xbeddc958	-0.43317676
57	0xbe4b5ea9	-0.19860329
58	0x3e56e6a3	0.20986418
59	0x3e196d21	0.14983036
60	0xbdd73792	-0.10508646
61	0xbd8d3003	-0.06893923
62	0xbead7a02	-0.33882147
63	0xbe8298dc	-0.25507247
64	0x3debff06	0.11523251
65	0xbe5a4866	-0.2131668
66	0xbebbefe5	-0.36706463
67	0x3d5e9d8b	0.054349463
68	0x3f00c28d	0.5029686
69	0x3f4b8856	0.7950491
70	0xbe962885	-0.2932779
71	0x3f03b6b7	0.51450676
72	0xbf4fc9a7	-0.8116707
73	0xbeae127b	-0.33998474
74	0x3f02b0bb	0.5105092
75	0x3e9deb89	0.30843762
76	0xbe07440f	-0.13209556
77	0xbe9943be	-0.29934496
78	0x3f1dcd68	0.6164155
79	0xbe86f8c7	-0.26361677
80	0x3e0d9ef7	0.13830172
81	0xbe0274e2	-0.127399
82	0xbebd2d1a	-0.36948472
83	0x3e0c055c	0.1367392
84	0xbc16b1eb	-0.009197692
85	0x3f529a0f	0.82266325
86	0x3d7bc0b2	0.061463065
87	0x3de7e01a	0.11322041
88	0xbefbb82d	-0.49163952
89	0x3e1c320b	0.15253465
90	0x3de62038	0.11236614
91	0xbefc22fd	-0.49245444
92	0xbe4ec8d6	-0.201938
93	0xbe9090a0	-0.2823534
94	0x3ef65366	0.48110503
95	0xbd4d27a6	-0.05008664
96	0x3de12110	0.10992634
97	0x3f1a5661	0.60288054
98	0x3e9ca7b4	0.30596697
99	0x3df1c4e8	0.11805135
100	0xbe16a0e1	-0.14709808
101	0xbe45f60b	-0.19332139
102	0x3da0f302	0.0785885
103	0xbf168c89	-0.5880819
104	0x3f7f36cd	0.99692994
105	0x3f0c1ba6	0.5472969
106	0xbef4de7f	-0.47826
107	0xbdc905d7	-0.09815567
108	0x3e9dad89	0.3079646
109	0x3f1f2230	0.6216154
110	0xbe6a8800	-0.22903442
111	0x3edf21e2	0.43580538
112	0xbeffb95b	-0.49946102
113	0x3d7dc125	0.061951775
114	0x3ec3750c	0.38175237
115	0x3ef91ba6	0.48653907
116	0x3ea79cb1	0.32736734
117	0x3f0defad	0.5544384
118	0x3ec13811	0.37738088
119	0xbf20a06d	-0.6274479
120	0x3e889b94	0.26681197
121	0x3f6ccadf	0.92497057
122	0x3e68869b	0.22707598
123	0x3e9f922e	0.31166214
124	0x3ce81904	0.02833224
125	0xbeab6237	-0.3347337
126	0x3e63e0a1	0.22253658
127	0x3f2a7604	0.6658633
128	0xbe31e031	-0.17370678
129	0xbe9e1847	-0.30877897
130	0xbe20f6a3	-0.15719084
131	0xbed703ea	-0.41995174
132	0x3e017bdf	0.1264491
133	0xbef06fb3	-0.4696022
134	0xbde1fd50	-0.11034644
135	0x3e9f1b20	0.31075382
136	0xbe10b4e8	-0.1413151
137	0xbe00d470	-0.12581038
138	0x3e9661e0	0.29371548
139	0xbe864edf	-0.2623205
140	0xbd9e4c5d	-0.07729409
141	0x3e6f1076	0.23346123
142	0xbe131d26	-0.14366588
143	0xbefb25ef	-0.4905238
144	0x3f308f83	0.6896898
145	0x3e3dffcb	0.18554609
146	0x3f01a7d2	0.506467
147	0x3ee3ebec	0.44515932
148	0x3ecd1fdf	0.40063378
149	0x3b9d6973	0.0048038303
150	0x3e9c7afd	0.30562583
151	0x3ed8eaaa	0.42366534
152	0x3d05ae8c	0.032637164
153	0xbf29de1e	-0.6635455
154	0x3f588d1c	0.84590316
155	0xbe86f179	-0.26356104
156	0x3ce5c716	0.028049033
157	0xbee224c2	-0.4416867
158	0xbe5c1098	-0.21490705
159	0x3e5544e7	0.20827065
160	0x3f07559d	0.5286501
161	0xbe4c8701	-0.19973375
162	0x3f08a6f0	0.53379726
163	0x3ea46e60	0.3211546
164	0xbc6fc6ab	-0.0146347685
165	0xbf1f4e35	-0.6222871
166	0x3dd24f35	0.10269014
167	0x3f06437e	0.52446735
168	0x3ec9069a	0.3926285
169	0x3ec13134	0.37732852
170	0x3ec9cb6f	0.3941302
171	0x3d163b08	0.03667739
172	0x3f22d580	0.63607025
173	0x3f322264	0.69583726
174	0x3c72278d	0.014779937
175	0x3ea96638	0.330858
176	0xbeb4f778	-0.35345054
177	0x3d13148b	0.035908263
178	0x3eeadc5f	0.45871255
179	0x3e86a1b3	0.26295242
180	0x3ed72bfd	0.42025748
181	0x3e234c3f	0.15947054
182	0x3e7e3fa3	0.24828963
183	0xbf052939	-0.52016026
184	0x3f46f754	0.7772114
185	0x3ee96f4b	0.45592722
186	0x3e82cc88	0.2554667
187	0x3e6582cf	0.22413181
188	0x3e24736e	0.16059658
189	0x3e35b31d	0.17744108
190	0x3e670652	0.22561005
191	0x3f1aedf1	0.6051932

arith.constant2 f4 [3]
0	0xbe00d8d6	-0.12582716
1	0xbdfc053d	-0.123056866
2	0x3e3fb880	0.18722725

arith.constant3 f4 [12]
0	0xbe6e6146	-0.23279294
1	0x3dbfabae	0.09358917
2	0x3eb0218d	0.34400597
3	0xbe9edef3	-0.31029472
4	0xbdb83491	-0.08994401
5	0x3da3d4ae	0.0799955
6	0x3f0e732d	0.55644494
7	0x3eff4237	0.49855205
8	0xbe0d4ec1	-0.13799573
9	0xbe5fc1c5	-0.21851261
10	0x3e7fcea8	0.24981177
11	0x3ea4417a	0.32081205

sequential_2_1/dense_7_1/BiasAdd/ReadVariableOp f4 [16]
0	0xbe480d9a	-0.19536439
1	0x3e381884	0.17978102
2	0x3e1057e2	0.14096025
3	0x3eb5009d	0.3535203
4	0x3e5d7f61	0.21630622
5	0x3ef36d37	0.47544262
6	0x3ecf0bbe	0.40438646
7	0xbeb983f4	-0.36233485
8	0xbd2881af	-0.0411393
9	0x3f04d2ff	0.51884454
10	0xbe61e244	-0.2205897
11	0x3c972778	0.018451437
12	0x3e83d23c	0.25746334
13	0x3e0c8dbf	0.13725947
14	0x3f2d1fa1	0.67626387
15	0x3ec874ac	0.39151514

sequential_2_1/dense_7_1/MatMul f4 [16, 5]
0	0xbf11f1b1	-0.57009417
1	0xbda46ec8	-0.08028942
2	0xbd5b62e3	-0.053561103
3	0x3eac16b7	0.3361108
4	0xbf599de3	-0.8500654
5	0x3e80006d	0.25000325
6	0x3e827e91	0.25487188
7	0xbea52438	-0.32254195
8	0xbe20ce2b	-0.15703647
9	0xbe633b29	-0.22190537
10	0x3f1dbc55	0.61615497
11	0xbf90bff1	-1.1308576
12	0xbd9d831b	-0.07691022
13	0xbdbd2c57	-0.09236973
14	0x3d23c5b1	0.039983455
15	0xbe8ad27d	-0.27113715
16	0xbd8c1f00	-0.0684185
17	0xbecda64c	-0.40165937
18	0xbea442f0	-0.3208232
19	0xbefa8f6a	-0.4893754
20	0x3f1188cc	0.5684936
21	0x3f0be814	0.54651
22	0x3d1cec76	0.038311444
23	0xbdf12359	-0.1177432
24	0xbcd2e3a4	-0.025743313
25	0x3f67919e	0.9045657
26	0x3ea61281	0.32435992
27	0x3da88baa	0.08229764
28	0x3e0696ca	0.13143459
29	0x3f2a8533	0.66609496
30	0xbd2617d7	-0.04055008
31	0xbf29b127	-0.6628594
32	0x3e09260c	0.1339342
33	0x3d9210ab	0.071320854
34	0xbe355262	-0.17707208
35	0xbf3bbec8	-0.73337984
36	0xbebf158d	-0.3732113
37	0x3e318646	0.17336378
38	0x3e2b6648	0.16738236
39	0xbf3cda57	-0.7377066
40	0x3f1af466	0.6052917
41	0xbf42574a	-0.7591444
42	0x3d0a53a7	0.033771183
43	0x3e5c770c	0.21529788
44	0x3e8d4d39	0.2759798
45	0xbbfdd6d8	-0.0077465586
46	0xbd7da09d	-0.06192075
47	0xbd4c3d3a	-0.049863078
48	0x3ec2e262	0.3806334
49	0x3ea9e229	0.3318036
50	0xbf2633b1	-0.64922625
51	0xbe4f5d68	-0.20250475
52	0xbe10a9a3	-0.14127211
53	0x3c9eaff8	0.019371018
54	0xbea69c77	-0.32541248
55	0xbe00d1aa	-0.1257998
56	0xbdaa1a6f	-0.08305823
57	0x3a1ac064	0.0005903302
58	0x3f0fd195	0.5617917
59	0x3e211db2	0.15733984
60	0xbed9f937	-0.42572948
61	0x3f330505	0.69929534
62	0x3e4a9986	0.19785127
63	0x3d72f28d	0.059313346
64	0xbf0bbbfa	-0.54583704
65	0x3dbf2444	0.09333089
66	0xbf7995f3	-0.9749443
67	0xbe4f0092	-0.20215061
68	0xbebb48ba	-0.36578923
69	0x3e82d570	0.25553465
70	0x3f38cac0	0.7218437
71	0x3d7a6f45	0.06114127
72	0xbdfae7e8	-0.12251264
73	0x3d0ac702	0.033881195
74	0x3f4bee26	0.7966026
75	0x3e2d6a17	0.16935001
76	0xbeb075bb	-0.3446482
77	0x3ee08b80	0.4385643
78	0x3e18fcb1	0.14940144
79	0x3dc26ee3	0.09493806
